log/DeepSAD/mnist_test/model.tar (torch, 71943 bytes, 21 tensors)

conv1.weight f4 [8, 1, 5, 5]
00000000: c0ae 293e ca18 4c3e 981b 2fbd c50c 2c3e
00000010: 253b f0bc 4ba0 303d 1e13 8abd 5dae e23d
00000020: 3fac 2c3e 55ed f6bd 82a7 023e 1927 893c
00000030: a1f3 f83d d360 ccbb 5670 bb3d f535 6fbd
00000040: 0f1e 1b3e 0ae3 58bb c79a 14be a0b4 be3c
00000050: 2949 93bd 855a 86bc ada2 f7bd 7699 083d
00000060: e9cc 56be 5a3f babd 6f09 10bd cbcf dcbd
00000070: 101d f63c 81f4 3cbe 4a15 4f3e d2f5 09be
00000080: 200c 293e 013a 303d beed 7bbd be3a 313e
00000090: 946e 893d 5950 2a3e 87da f63c 2232 71bd
000000a0: a7cc a23d d756 87bd 78fd 513d e6d2 3e3e
000000b0: 954e eb3d 5323 c7bd 8e35 ba3d cc14 103d
000000c0: 6992 f93d 91fd debd cd07 6abe aa0c cebd
000000d0: db13 29be be7d 163e 1db5 593d 96c9 a63d
000000e0: 68ba 813d d9f7 1dbb 39af 113e 1ea0 16be
000000f0: 4c35 253d dec0 04be 97aa 5d3d 012a a5bd
00000100: 0d6b 2e3d 6f04 dcbc 175f 223e 0258 05be
00000110: 5f07 06be 8b96 16be e28f 083e e757 f13c
00000120: b491 233e 14d1 43be 9a1f 70be ba45 19be
00000130: 9e58 fdbd 4702 943d 68b8 9c3d 9ed1 2c3e
00000140: 6b7e fdbd 5a33 16be 7246 953d 1d63 c2bd
00000150: 4827 e03d 8d1b 74bd 2052 9d3d c669 34be
00000160: 48f0 e5bd cb94 5a3d f90d 733c d194 b5bd
00000170: 76db d13d ff99 f73d 9a29 1bbe 7db0 0abe
00000180: 4330 203e 256d a2bd 330b c6bd 906a 51be
00000190: c3c1 9bbd 065f 183d 3410 29bd ab55 1abe
000001a0: 8e42 77bc 9bc8 e1bd c440 2dbe 495b 08be
000001b0: 2947 2abe 7c2c e0bd 5328 503e 3e70 133d
000001c0: df4f 5c3d 68e0 3cbe 452f f0bd 0437 6abd
000001d0: 5b9b f03c 7180 4fbe c00a a5bd a52c fdbd
000001e0: 55a0 843c 15ea a3bd 0764 02bd 0efa 28be
000001f0: e74e 62be 2ee5 08be 1aec 99bd 5d8a 13be
00000200: 28b9 223e 920d 2cbd 981c 393e b889 913d
00000210: 1716 26be d548 053e 216b 50bd 768c 74bd
00000220: 054a 24be 384b 4ebe 9808 613d 421a 10bd
00000230: 8915 bd3d bbdc 19be 0bdb 1c3e 6fa2 06be
00000240: 5693 81bc 6b43 993d e4d8 fe3d b7f4 323e
00000250: 3d63 443e 10b9 17be b189 5e3d 7a79 90bd
00000260: ff21 893c eb30 febd a2f2 2f3e 059e 09be
00000270: 4148 f73d 2fc2 c33d 3824 743d 8c73 09be
00000280: 20b2 1c3e e311 ed3c 510c 153d 66bc 2fbe
00000290: 37cc 013d 51f2 90bc 4996 80bd 1fc4 423e
000002a0: 17d6 0c3d 1fb4 22be 3980 88bd 8880 f63c
000002b0: 975c 023e 351f 9dbd 7d3d 12be 6331 33bd
000002c0: a6ed 01be 5860 513d 6c56 193e eb09 35be
000002d0: 8512 a33d 5b0a f23d 208f 7b3c 49a3 84bd
000002e0: e0ec dc3d d31d 093e 3908 6f3d 6723 9ebd
000002f0: 8ca6 7ebd 496a ea3c 73e8 9bbb 8fbc 4cbd
00000300: 7e9e 9f3d 9696 193e e2e9 35bc 3158 633b
00000310: 07d5 393d ab65 1b3d 475b b23d bb83 a73d
0.16570568 0.19931331 -0.042750925 0.16801746 -0.029325077 0.043121617 -0.067419276 0.110684134
0.16862582 -0.12056986 0.12759212 0.016742276 0.121558435 -0.0062371283 0.09152286 -0.058401067
0.15148185 -0.003309431 -0.14512168 0.023279488 -0.071916886 -0.016400585 -0.12091575 0.033349477
-0.20976605 -0.090941146 -0.035165247 -0.10781821 0.030043155 -0.18452646 0.20222965 -0.1347268
0.16508532 0.043024067 -0.061506025 0.17307565 0.06710544 0.16632213 0.030133499 -0.0588857
0.079491906 -0.0660836 0.051267117 0.18635139 0.11489598 -0.097235344 0.09092246 0.035176083
0.12186129 -0.10888208 -0.22854538 -0.10061009 -0.1651148 0.14696404 0.05315124 0.08143918
0.06334382 -0.0024104028 0.14226998 -0.14709517 0.04033403 -0.12964198 0.054117765 -0.08064652
0.04258256 -0.026857583 0.15856586 -0.13021854 -0.1308875 -0.14705865 0.13336137 0.02946086
0.1597355 -0.19122726 -0.23449555 -0.14968005 -0.12370418 0.07226997 0.0765236 0.16876838
-0.12377628 -0.14668027 0.07288827 -0.094915606 0.10944992 -0.059596587 0.0768168 -0.17618474
-0.11227471 0.053364556 0.014834874 -0.08866275 0.10246937 0.12089919 -0.15152588 -0.13543887
0.1564341 -0.07930974 -0.09670105 -0.20450807 -0.076053165 0.037199996 -0.041275218 -0.15071742
-0.0150915515 -0.110245906 -0.16919237 -0.13316073 -0.16628708 -0.10945985 0.20327882 0.035995714
0.05378711 -0.18444979 -0.11727766 -0.057181373 0.029370954 -0.2026384 -0.08058691 -0.12362031
0.016189734 -0.08003632 -0.031833675 -0.16501638 -0.22100411 -0.13368675 -0.07515736 -0.1440825
0.15890944 -0.04200513 0.18077314 0.07106346 -0.16219364 0.13016064 -0.050883416 -0.059704266
-0.16043861 -0.20145881 0.054939836 -0.03518129 0.09232623 -0.15025608 0.15317933 -0.13147901
-0.015817326 0.07483562 0.12443712 0.17476164 0.19178481 -0.1481669 0.05433053 -0.0705442
0.016739843 -0.12411674 0.17182401 -0.13439186 0.12074328 0.09558522 0.059604853 -0.13422984
0.15302324 0.028939193 0.0363887 -0.17161712 0.031688895 -0.01769367 -0.062786646 0.19020127
0.03438386 -0.15889023 -0.066650815 0.030090585 0.12730633 -0.07671968 -0.14281268 -0.04374827
-0.12688312 0.05111727 0.14974374 -0.17679565 0.07962517 0.118183814 0.015353948 -0.06476457
0.10787368 0.13390283 0.05835745 -0.07721596 -0.06217055 0.028615134 -0.0047579347 -0.04998451
0.07793902 0.1499885 -0.011103125 0.0034690017 0.045369174 0.037938755 0.08708816 0.081794225

bn1.running_mean f4 [8]
00000000: 2e26 a33d 5599 bc3d ee10 bcbd 4273 ddbd
00000010: 3b64 8fbe 12bd 7ebc dab8 bcba 0bda bb3d
0.079662666 0.09208933 -0.091829166 -0.10812999 -0.28006157 -0.015548008 -0.0014398352 0.09172448

bn1.running_var f4 [8]
00000000: 69f7 573d 8f6f 343d d51b 343d 83ac 2a3d
00000010: 2f8d 513e ba46 913c 4d7d 7d3c 0329 c43c
0.052726183 0.044051703 0.043971855 0.041668426 0.20464014 0.01773392 0.015471769 0.023945337

conv2.weight f4 [4, 8, 5, 5]
00000000: 7733 9abd 115c 01bd 0214 053d c11a 0cbd
00000010: ad6d 07bd e4b0 0dbd 513d 31bd d7b3 93bd
00000020: d72a 4dbd c521 cf3c 311e 323d 7617 243d
00000030: 854b 89bd 7e08 74bd a6ad eeb9 eedf 793d
00000040: ac51 1f3c e091 f0bc 1fa2 6e3c 3c92 7e3a
00000050: 25a4 0cbd b01b 503d ca58 48bd ac78 3fbd
00000060: 4d5f 7cbd 105f 1b3d f905 1b3d 0412 7f3b
00000070: a422 72bd 9f97 87bd 3c97 59bd 81c5 743d
00000080: 4505 9b3c d36d 183d 2986 ab3c dbc4 fb3b
00000090: b220 88bb 787d 89bd ea53 8fbd faed 0bbd
000000a0: b591 f13c 6a4d 1abd ede3 1bbd edef 9fbd
000000b0: 44a7 39bc 717c 4bbc a05c 00bd a790 98bb
000000c0: ae26 33bd 8306 193d dec2 e9bc 75f9 84bd
000000d0: 9a36 45bd 744a 7cbd 0d41 48bb c4c5 9fbd
000000e0: f9c9 403c 55e4 44bd 6dba e43b d9a9 e2bc
000000f0: f818 393c 8f3e 76bd cfff 0b3d 5bdb 99bd
00000100: 0a30 acbb 97b4 1c3d c9b6 45bc 04b0 7ebb
00000110: d0a5 ecbc a760 93bd 36b4 093c ae7f acbd
00000120: c8c7 a93c 5c1d ca3a a2fe 0b3d 1c3b 38ba
00000130: 5326 6bbd b845 433c 5957 913c 932c 89bd
00000140: de1a 4abc 7d78 34bd 2ef1 a43c 30ff eabc
00000150: 1c80 adbd cd44 a5bc d346 87bd 0626 503d
00000160: 4b22 1d3d 4fa2 1dbd 25be 7ebc bb25 29bd
00000170: 39a6 7cbd e66c 82bd 8809 c63b 6886 37bd
00000180: 539e 8abd 00bb 61bc 1828 1ebd a2af fcbc
00000190: a7ce 323c 97ab f4bb 572e 273c 7866 c2bb
000001a0: 241e 37bd 7068 813d 70ce c5bc 0773 1d3d
000001b0: 083c dcbc ed13 8dbb 9592 6c3d c54f e23c
000001c0: 4de9 59bd 9dc3 9b3c 4033 6f3d 2e84 89bc
000001d0: b6fa 213d fbbf c23d a5c1 19bd 765c 1c3c
000001e0: 647f 85bd 8871 2cbd a376 523d 7a6b a13c
000001f0: cb1b 45bd e408 b2bc 73aa 68bd 1a22 a0bd
00000200: ed60 89bd 6af7 a7bd c78c 85bc 2472 81bc
00000210: d83f 8fbd ea53 90bd 814b febb 3f08 c8bd
00000220: 48b3 e5bc bbd0 8a3b 34de 6bbd bdfe a3bc
00000230: 5fe7 34bc 6d19 39bd 3f0a 8a3b 16e1 08bd
00000240: 384b 3dbd f4a0 1dbd 49e0 c23c 1c7d a4bd
00000250: e27b c7bd 6421 07bd 5cd9 dcbb 2334 e43c
00000260: 71ba 0abc 6a02 fdbc c67b 61bd f910 6dbc
00000270: 11cb 3d3d 06be d1bc 12ff acbd 57f5 b53c
00000280: 0e78 21bd a05d 82bc a7a6 a6bd f79d 19bd
00000290: 67cd 91bc 67bd f23a e80a 0e3d 3a24 8dbd
000002a0: de38 a4bd eb50 19bd 175b eb3c bd16 0b3d
000002b0: 975a 7bbd e4f3 5abd 01a0 35bd 9e2f 25bd
000002c0: 2d15 a43b dec1 193b 0e3c 013d ab97 3bbd
000002d0: aa20 353d 71a8 44bd 2b6c 013c d08c 483d
000002e0: 18af 0f3c 7ce1 663d dea7 8cbd 1f53 24bd
000002f0: aae0 573d 5620 773b ab93 6bbc 4028 03bd
00000300: 2d3f c23c 28d9 5f3c fa05 a73c 61d6 07bd
00000310: 84cf 6dbd b0be 16bd c407 a53b ead3 44bd
00000320: f417 18bd b494 463c 3fba 9ebc ce9f 83bc
00000330: 39b0 10bd c104 98bd 0e05 afbd 31ec 31bd
00000340: 086e 41bd 2ede 2f3c 61ec 32bd 4e52 4ebd
00000350: 01b8 443d 1f88 833b d010 da3c c2ab 98bd
00000360: aabf 78bd 55a4 8ebb 2ceb 2cbd 7d8a 0ebd
00000370: a6f3 0ebd d394 40bd e5c0 7bbd 1f36 e73c
00000380: 547a 233d 46e0 b63b bb62 eebc f202 93bd
00000390: 6717 13bd 6304 233c 53d8 763c 3a35 edbc
000003a0: 56c7 4cbd 6c40 e03a 828d 5cbd f9df 363c
000003b0: f748 75bd 26e6 1ebd f566 e2bc 4c19 dbba
000003c0: 7918 21bd ebb7 8d3c 6072 6dbb 4603 203d
000003d0: e4a6 003d b80c 50bd 1ccb 51bd 229f 2b3d
000003e0: e46e c33c 636a 38bd ba83 27bd 2c99 a6bd
000003f0: b500 51bd 004e 443a cf5c 98ba 30a4 1abd
-0.075293474 -0.031581942 0.032489784 -0.034205202 -0.03306358 -0.034592524 -0.043271367 -0.07212036
-0.050089683 0.025284657 0.043485824 0.040061437 -0.06703857 -0.05957841 -0.00045524276 0.06100457
0.009724062 -0.029366434 0.01456502 0.00097111217 -0.034336228 0.050807655 -0.0489128 -0.04674594
-0.061614323 0.037932456 0.037847493 0.003892065 -0.059115067 -0.06620716 -0.053122744 0.059758667
0.018923411 0.03721411 0.020937996 0.007683379 -0.004154288 -0.067133844 -0.06998427 -0.0341625
0.029488424 -0.037671484 -0.038059164 -0.07809434 -0.011331383 -0.012419806 -0.031338334 -0.004655916
-0.04373806 0.037359726 -0.028535303 -0.06492893 -0.048147775 -0.06159444 -0.0030556351 -0.07801393
0.011766904 -0.048069317 0.0069802315 -0.02766888 0.011297457 -0.060118254 0.034179505 -0.07512542
-0.00525475 0.03825816 -0.012067505 -0.0038862238 -0.02888766 -0.07196169 0.008404782 -0.084227905
0.020725146 0.0015420127 0.034178384 -0.0007027851 -0.057409596 0.011918478 0.017741846 -0.06697955
-0.012335507 -0.04406022 0.020134535 -0.028686136 -0.084717005 -0.020174408 -0.066053055 0.050817512
0.038362782 -0.038484868 -0.015548264 -0.04129575 -0.06168196 -0.06368427 0.0060436167 -0.044805914
-0.06768479 -0.013777494 -0.038612455 -0.030845467 0.010913528 -0.007466744 0.010203919 -0.0059326254
-0.04470648 0.06318748 -0.024146289 0.038439777 -0.026884094 -0.004305354 0.05775698 0.027625928
-0.05320101 0.019014174 0.058398485 -0.016786661 0.039545737 0.095092736 -0.03753819 0.009543529
-0.065184385 -0.04210046 0.051382672 0.01970457 -0.04812221 -0.021732755 -0.056803178 -0.07819004
-0.0670794 -0.08201487 -0.01630248 -0.015801497 -0.06994599 -0.07047255 -0.0077604656 -0.09767198
-0.02803959 0.0042363084 -0.057584956 -0.02001893 -0.011041491 -0.045190264 0.004212647 -0.033417784
-0.046214312 -0.038483575 0.023788588 -0.08031675 -0.09740426 -0.03299083 -0.0067397784 0.027856892
-0.008467303 -0.03088494 -0.05504968 -0.014469379 0.046336237 -0.025603306 -0.08447088 0.022211714
-0.039421134 -0.015913785 -0.08137255 -0.037504163 -0.017798139 0.0018519581 0.03467837 -0.06891675
-0.08018659 -0.037430685 0.028729958 0.03395723 -0.06136569 -0.05345525 -0.044342045 -0.040328614
0.005007407 0.00234615 0.031551413 -0.04579894 0.044220604 -0.0480122 0.007899324 0.048962414
0.008769773 0.056367382 -0.068679556 -0.040118333 0.05270449 0.0037708483 -0.0143784685 -0.032020807
0.023711765 0.013662614 0.020388592 -0.033163432 -0.05805923 -0.036802948 0.005036326 -0.04805366
-0.03713222 0.0121204145 -0.019375918 -0.016067412 -0.03532431 -0.07422782 -0.08545886 -0.04343814
-0.047224075 0.010734124 -0.04368246 -0.05037146 0.048027042 0.0040140296 0.026619345 -0.07454635
-0.06072966 -0.004353086 -0.042216465 -0.03480004 -0.03490033 -0.04701693 -0.061463255 0.02822405
0.039911583 0.0055809347 -0.029099813 -0.07178296 -0.03591099 0.009949776 0.015066224 -0.028956044
-0.04999479 0.0017109043 -0.05384589 0.011161798 -0.059884038 -0.038793705 -0.027636984 -0.0016715913
-0.03932998 0.017299613 -0.0036231503 0.03906562 0.03140916 -0.05079338 -0.05121909 0.041899808
0.023856588 -0.045023333 -0.04089711 -0.08134684 -0.051026065 0.00074884295 -0.0011624339 -0.037754238

bn2.running_mean f4 [4]
00000000: c33b d5bf 6be0 f1bf fd5a 01c0 5b11 c5bf
-1.6658863 -1.8896612 -2.0211785 -1.5395921

bn2.running_var f4 [4]
00000000: 8ea1 bf3f 0bbb ee3f 6bbf 2340 ab10 c23f
1.4971178 1.8650831 2.5585582 1.5161337

fc1.weight f4 [32, 196]
00000000: 7900 0b3d ec25 04bd 702f d3bc dd97 0a3d
00000010: 59fb 42bd 0cb3 e0bc 9c07 95bc ce35 d2bc
00000020: 56a9 d3bc 7030 38bc 8d29 b03c 7e3a 1fbd
00000030: a140 49bd c9d4 163c 3c3d 3c3c e953 153c
00000040: 04e3 073a 5112 ba3b 13db 323d bff3 083c
00000050: 41b4 56bd a505 d5bc e3b5 22bd ab25 31bc
00000060: 1016 a33c 5a2d 843c 2c59 f63c 655a 05bd
00000070: 2614 663b 243b 13bd 934f 873c ab19 bfbc
00000080: 417c e4bb d429 b5bc 6a7a 4b3a 1c37 433d
00000090: c815 213c c594 77bd 6ece 013d 7c04 1c3c
000000a0: 9df1 00bd 94d0 773d 0696 69bb f54e 5d3c
000000b0: 7fd9 a4bc 4e34 dcbc 1369 2c3c 5ecc de3c
000000c0: 8145 a33c 92f9 0abd d465 733d f3da 6fbc
000000d0: a7e0 0dbd 55cf 62bc 10e2 d13c 5786 6c3c
000000e0: f3d7 3dbc 34b5 02bd bd91 58bc fc50 33bd
000000f0: eff7 45bd 1c34 f53c 8faf c03c de5e 823d
00000100: 5574 41bd 3bf9 ff3c 8e92 d3bc 81df 273d
00000110: f5e0 703d 6218 813c c502 553d bfa6 0e3d
00000120: 1149 033c d2d4 e43c 8c7b a2bc c884 183d
00000130: 1fe7 1abc e9d9 d0b8 f02a 6dbd 47b8 22bc
00000140: ab38 01bd 896e 9bbb 73b3 8bbd a5e2 12bc
00000150: d4d6 be3b e343 ca3c abb5 083d 3077 c43c
00000160: 28fa 08bd 82f1 2cbc e6fb 623d b8b8 0e3d
00000170: 2e7f 7dbd 7b4e 903c ac7f 343d adb3 d33c
00000180: 4119 c5bc 680f 853d 373f f03c 3674 3a3d
00000190: b44d 1ebd a1f7 353d 8601 1abd 30c1 873d
000001a0: c11c c7bc a7e5 2b3d 1db2 593c 468a 673c
000001b0: 5328 033c 0c20 f83b 0c94 27bd a9ad 4ebd
000001c0: 9573 fcbc 3d44 3f3d 05ff 51bc 8870 083d
000001d0: d66c f1bc 7e88 373d ceb1 a53c 4570 993c
000001e0: 5d66 21bd d651 19bd 9c05 3dbb 065c e9bc
000001f0: 2873 593d dcc9 5fbd e4d4 043d d316 343d
00000200: 8a02 803d 116a 603c a693 38bd 3612 7b3d
00000210: ef88 0c3c 4937 74bd 151d 203d 3448 19bd
00000220: 4bbb 40bd 65b1 893d 1e1c 85bc 3d27 20bd
00000230: 5a26 ceba 9c63 40bc d109 7d3c e286 80bd
00000240: 7a04 bb3c 606e 19bc 9864 ebbc 68d3 87bd
00000250: 206d 2b3d 5023 1a3d 92b0 d8bb dcf3 a63c
00000260: 3670 0b3c 51e4 0e3d 862c 35bd 83ab 7a3c
00000270: 15d8 233d eadf 2a3d bb58 51bd 0bac 5c3d
00000280: 9728 9c3c 5998 003d 3ef3 e9bb 6c3e 703d
00000290: 868d 3abd 8a80 523d f6ba 43bd ca79 dc3b
000002a0: f101 64bd c9b4 ad3b 7b9f d63b dbe0 cdb8
000002b0: 5934 8ebb b4ce 543c a219 603d a2eb 203b
000002c0: 787c 3f3d 6e83 3a3c 2026 593d be2b 9f3b
000002d0: 4308 343c 33df 523c 71b2 9cbd 30bc 30bd
000002e0: b278 513c da0e 92bb fa2b 0bbb 040a a9bc
000002f0: 8dbb a23c 169a 463d c694 bbbc 8b7c 603d
00000300: ef15 4c3d 7463 50bd c2bd 12bd 85bd 51bd
00000310: ad23 2bbd 8869 c8bc dc78 b73c 82ee 0fbb
00000320: c06a 7bbc 8ebd a43c 1c7c 99bc dee4 833d
00000330: a5bb abbb 195d 4fbd f18b 833d 08fb 1dbd
00000340: 604f 8e3c 9a46 3a3d faea 523d f495 18bd
00000350: 7d03 233e ddc4 0f3d fb3b 79bc 7f53 e13c
00000360: 4824 2f3d c464 c0bc 4e42 8b3d 46b5 ea3c
00000370: 6491 27bd 6130 c13d f1a6 1a3b e853 46bd
00000380: f1ee 4a3c 2adb ddbc 1c19 983d 2ec0 3a3d
00000390: d2be e93c db9c 77bc 4f92 d63c 1fcd 8a3b
000003a0: ecda bd3c e792 f6bb d28b 7f3d b2c4 2abc
000003b0: 4a69 85bc 5c04 6a3c 4730 3e3b 0fe6 2c3d
000003c0: 03e3 f2bc 588f 783b 218d 763c a433 9dbc
000003d0: 56f0 373d 849b b13b 9a1f 8bbd 30da c4bb
000003e0: 9d43 59bc f0dd 1a3c 4195 103c cbcc d1bc
000003f0: c830 74bc 381c f4bb aca2 1abc 39ef 473d
0.033935998 -0.032262728 -0.025779456 0.033836234 -0.047602985 -0.027429126 -0.018192105 -0.025660422
-0.025837582 -0.011242017 0.021504188 -0.038874142 -0.0491339 0.009206005 0.011489209 0.009114244
0.0005183669 0.005678453 0.043665957 0.008358895 -0.052417997 -0.026003668 -0.039724242 -0.010812203
0.019907981 0.016134907 0.030071817 -0.03255691 0.0035107224 -0.035945073 0.016517436 -0.02332767
-0.00697282 -0.022114672 0.00077620766 0.04765998 0.009831853 -0.060444612 0.031691007 0.0095225535
-0.03148042 0.06050165 -0.00356424 0.013507594 -0.020123241 -0.02688041 0.0105230985 0.02719706
0.019930603 -0.033929415 0.059423283 -0.014639604 -0.034638073 -0.013843377 0.02562049 0.014436326
-0.011587131 -0.03191109 -0.01321834 -0.043778405 -0.04833215 0.029932074 0.023521213 0.06365751
-0.047230083 0.031246772 -0.025826719 0.040984634 0.058808286 0.015758697 0.052004594 0.03482699
0.008013026 0.027933512 -0.019834302 0.037236005 -0.009454518 -9.958802e-05 -0.057902277 -0.00993163
-0.031548183 -0.0047434014 -0.068213366 -0.008965169 0.0058239494 0.024690574 0.033376377 0.023982614
-0.033441693 -0.010555627 0.05541601 0.03484413 -0.061888866 0.017615547 0.04406707 0.025842512
-0.024059894 0.06497079 0.029327018 0.045520984 -0.038648322 0.04442561 -0.03759911 0.066286445
-0.024305703 0.04196706 0.013287094 0.014132088 0.0080052195 0.0075721797 -0.040912673 -0.050458584
-0.030816833 0.046695936 -0.012817149 0.033310443 -0.029470842 0.044807903 0.020226385 0.018730292
-0.03940426 -0.03743156 -0.0028842455 -0.028486263 0.053088337 -0.054635867 0.03242959 0.04396708
0.06250484 0.013697163 -0.045062684 0.061296664 0.008577569 -0.059623037 0.039090235 -0.037422374
-0.047053616 0.067232884 -0.016248759 -0.03909992 -0.0015727982 -0.011742499 0.015444235 -0.06275727
0.022829283 -0.009364694 -0.02873449 -0.066321194 0.041852117 0.037631333 -0.0066128457 0.020379953
0.00851064 0.03488571 -0.044231914 0.015299681 0.040000994 0.041717447 -0.05111001 0.05387501
0.019062323 0.03139529 -0.0071395924 0.05865328 -0.045545124 0.051392116 -0.04778572 0.0067283856
-0.055665914 0.0053010923 0.0065497733 -9.817044e-05 -0.0043397364 0.012988735 0.054711945 0.002455451
0.046749562 0.011383874 0.053014874 0.0048575094 0.010988298 0.012870598 -0.076512225 -0.04314822
0.012785124 -0.004457337 -0.002123593 -0.020634659 0.019864822 0.04848679 -0.02289809 0.054806273
0.049825605 -0.050876096 -0.0358255 -0.05120613 -0.04178207 -0.024464384 0.022396497 -0.002196223
-0.015345275 0.020109918 -0.018735938 0.06440137 -0.005240875 -0.050625894 0.06423176 -0.03856948
0.017371833 0.045477487 0.051493622 -0.03725238 0.159193 0.035099853 -0.015212054 0.027505634
0.04275921 -0.023485549 0.06799756 0.028650891 -0.04091014 0.09433056 0.002359804 -0.048419863
0.01238607 -0.027082045 0.07426664 0.045593433 0.028533373 -0.015113081 0.026192812 0.004235878
0.02317568 -0.0075248363 0.062389202 -0.010422872 -0.016285557 0.014283266 0.0029020475 0.04221159
-0.029649263 0.0037927236 0.015048296 -0.019189663 0.044906937 0.0054201502 -0.06793137 -0.0060074553
-0.013260749 0.009452328 0.008824647 -0.025610348 -0.0149042085 -0.007449653 -0.009438198 0.048812125

encoder.conv1.weight f4 [8, 1, 5, 5]
00000000: cd43 7c3d a9b3 953d 8dd0 e23b 542b 163d
00000010: db01 dfba 8243 7ebb f940 cebc 49c7 ac3c
00000020: 0c6b b73d f3d9 c6bc e874 893b 3de8 27bd
00000030: a728 193d 1b1d 5f3d 9cd7 bfbc 16b4 273d
00000040: 5c89 dc3d d5ef 973c 3b9a e33c 9feb d03c
00000050: 74ac 8b3c 4521 5a3d 61ac f0bc 4d47 9c3b
00000060: 5f27 863d bc74 0f3b a573 c93c 3750 1c3d
00000070: fd08 863d b444 28bd 9a27 183d f522 bf3c
00000080: dd1d 7f3d 1da1 dd3c 412f 8e3c f574 013d
00000090: 670d 1a3d 635f 36bc 8a3d f5bc 31c1 79bc
000000a0: 0d90 7fbc d782 553c e981 a53c 3125 9dbd
000000b0: bb0b 41bd 7b3e 153c 2818 73bd c643 d83c
000000c0: 8d13 aebc 4b2f efbd 9e45 2ebd 227f 0cbd
000000d0: 8831 d93b 932c 73bb ebbd 3e3d e89b 2ebd
000000e0: 2fcc 45bd 6bf5 3bbd 0116 5fbd d060 263c
000000f0: eb4e bc3c 89f2 5bbd 4525 dfbc 964d 343d
00000100: 3770 1cbd 6931 d13d 17e8 c33c e8a8 19bd
00000110: d6aa 473d d20d c7bd 45f0 053c 6b85 dfbd
00000120: c4d8 15bd 145e a13d 55bc 01bd a420 5dbd
00000130: f844 86bc 10ff 95bc 13f1 413d 499b e5bc
00000140: c470 77bc 6309 0fbd 571d d2bc df85 b03b
00000150: c5c5 8abc bcfa b8bc 6faa 4cba 7984 adbc
00000160: 6bbd 6bba c209 f23c 2ac7 24bd c747 d83a
00000170: ec7e 22bc 10c3 593d 60d9 b33d b7bc 23bc
00000180: 6545 01bd 7cab 2ebd 1939 9a3d 96be b63d
00000190: bfc0 593b c011 5ebc e571 c8bc 54ac 8a3c
000001a0: a071 3a3d ff9f 14bd 28b8 293d 47b1 723d
000001b0: 73ce 7a3c 3d19 c63b be6e 7bbd 0adb ccbc
000001c0: 1778 873c 67f0 26bb a6a7 22bd 19c1 2cbd
000001d0: 88d2 c6bc 8617 5e3d bba7 4d3d 7591 d5bc
000001e0: 50ef 82bd 38ee 8fbd 10d2 573c b175 013d
000001f0: 7d8b a23d 86f0 efbc 61cb 953d 3eb3 713c
00000200: 6c21 1ebd 1d98 5fbd 2e37 903d ddbc 20bd
00000210: 1774 a7bd 9aad 0dbc 56e0 8cbd 9031 6f3d
00000220: bca3 8dbc e8dc 00bd 87e5 9cbc 2cb9 a6bc
00000230: f10d 9a3c 5a08 cf3c 5e44 b3bd 0d10 a33b
00000240: 94a8 93bd 9816 0b3e 8f00 783d 42d2 b83c
00000250: 9e63 6bbc 9c7c 11bc b574 94bd a01b c2bd
00000260: f1a8 ceba 1af2 b2b8 edb7 d4bc ed23 0fbd
00000270: 84fb 1fbd 50be 26bc 117a 413d 2cdc d1bc
00000280: 4c09 05bd 06b1 cbbc c1ef b9bc 7c0d 1abd
00000290: fc3f 1ebc 8eb6 673d 2a22 8c3d 2bda 143d
000002a0: d703 453d 7378 123d 5b24 533d 18a8 3b3d
000002b0: 5269 cb3c e01f 46bb c668 c23c f429 073d
000002c0: 396d ea3c 248e 463d ca0a 873d 15da 163d
000002d0: 1dad 123c 8856 5a3a 6d9a b33c bb12 903c
000002e0: 4042 cc3c a505 9b3c 6d63 c13c a804 d73c
000002f0: 7f89 573c 8e92 0dbc 00f1 403d ff65 ad3c
00000300: c34b 22bc f65c 933d 1a3e 2fbc 475b adbb
00000310: b8f9 9cbd e28b 4cbd 2802 cf3a 1008 25bd
0.061588097 0.07309658 0.006921834 0.036662415 -0.0017014103 -0.0038797562 -0.025177466 0.02109112
0.089559644 -0.024273848 0.0041948445 -0.040992964 0.037392285 0.054471117 -0.02341824 0.040943228
0.10768387 0.018546978 0.027783504 0.025502978 0.017050005 0.053254385 -0.029379072 0.004769242
0.06550478 0.0021889647 0.024591276 0.038162436 0.06544683 -0.041081145 0.037147142 0.023332098
0.06228434 0.027054364 0.017356517 0.03160568 0.037610438 -0.01113114 -0.02993657 -0.015243814
-0.015598309 0.013031683 0.020203548 -0.07673109 -0.047130328 0.009109135 -0.05934921 0.026399504
-0.021249557 -0.11678942 -0.04254686 -0.03430093 0.006628219 -0.0037105426 0.04656784 -0.042629153
-0.048290428 -0.045888346 -0.054464344 0.010154918 0.02298685 -0.053698096 -0.027239451 0.044019304
-0.038192954 0.10214502 0.02391438 -0.037514597 0.048746906 -0.09719433 0.0081749605 -0.10914119
-0.036583677 0.07879272 -0.031673748 -0.053986207 -0.016390309 -0.0183101 0.047349047 -0.028028147
-0.015102569 -0.03492106 -0.025648756 0.0053870524 -0.016940007 -0.022580497 -0.0007807379 -0.021181332
-0.0008992764 0.029545669 -0.040229 0.0016500884 -0.009917956 0.05316454 0.08781695 -0.009993724
-0.03156032 -0.04264401 0.07530422 0.0892307 0.0033226458 -0.013554037 -0.024468372 0.016927876
0.045518517 -0.036285397 0.04143539 0.059251096 0.01530801 0.006045489 -0.06138491 -0.02500679
0.016536755 -0.002547288 -0.039710663 -0.04217634 -0.024270311 0.054221652 0.05020879 -0.026070336
-0.063933015 -0.070278585 0.013172641 0.03160638 0.079367615 -0.029289495 0.07314182 0.014752207
-0.038606092 -0.054588426 0.07041775 -0.039242614 -0.08176439 -0.008647347 -0.06878726 0.058396876
-0.017289989 -0.031460673 -0.019152416 -0.020351969 0.018805476 0.025272537 -0.087532744 0.0049762786
-0.07209888 0.13582838 0.060547408 0.022561196 -0.014367012 -0.008879807 -0.072488226 -0.09477925
-0.0015766901 -8.532796e-05 -0.025966609 -0.03494637 -0.039058223 -0.01017721 0.047235552 -0.025617681
-0.03247957 -0.024864685 -0.022697331 -0.037610516 -0.00965881 0.056570582 0.06842454 0.036340874
0.048099365 0.0357594 0.051548343 0.045814604 0.024830494 -0.0030231401 0.0237316 0.032998994
0.028616535 0.0484754 0.06593855 0.036829073 0.008952406 0.0008328934 0.021924222 0.017587056
0.024933934 0.01892359 0.02360698 0.026247337 0.01315534 -0.008640898 0.047104836 0.0211668
-0.009905758 0.07195465 -0.0106959585 -0.005290422 -0.076648176 -0.04993809 0.0015793489 -0.040290892

encoder.bn1.running_mean f4 [8]
00000000: 31be b83d 45be a639 ae1b 40bd 98cb 2db9
00000010: 4d49 cd39 39f5 84bc 6609 cb39 91aa 3f3d
0.09020651 0.0003180375 -0.046901397 -0.0001657441 0.0003915526 -0.016230213 0.0003872618 0.046793524

encoder.bn1.running_var f4 [8]
00000000: b8da 983c b876 283c bbcc dd3b b73b 213c
00000010: ef62 b83b 558d 523c 656d 0c3c 4699 173c
0.01865898 0.010282211 0.0067687905 0.009840897 0.005627028 0.012851079 0.008571004 0.009252852

encoder.conv2.weight f4 [4, 8, 5, 5]
00000000: abf7 d73c 4090 113d eb9f 013c d8fb 913b
00000010: 613e 713b 16e6 623d 57c5 1d3d 6d2a 873c
00000020: 4f6c a9ba 16c4 613b bd4c 613d ca54 973c
00000030: 064e 2a3b 0da3 043c eae8 b23b fe94 123d
00000040: dc16 ca3c 3d29 a73c db5f 5fba fefb 853b
00000050: 7d2f 123d 78ce e13c a57e f63b 3507 d13b
00000060: 0802 bebc 35a7 dfba e254 003d e2df 18bb
00000070: e12e adbc 5b30 cb3a ab93 043d 3660 a53c
00000080: a973 2c3c 072d 3dbc 386f 613c 19fa 9f3c
00000090: 2a58 0c3d 1440 b93c 7e2c 313b 6799 ed3b
000000a0: c096 45bc 0890 59bb 1ddf 1d3c bb78 2f3c
000000b0: 7d0e b5bc cc42 103b b4fb 04bb 3640 b13c
000000c0: fdfc d73c f050 7ebc 6fb1 d33c a0f2 053d
000000d0: bb73 8f3c 16e1 a53c 444d e13c 41b8 073d
000000e0: 97a7 a73c 859d 053c 976c aabb 8a7e 103c
000000f0: 216e a43c 936a e33b 90ab 963c cbbf 87ba
00000100: b0c2 94ba b2b2 1f3d fabc a73c 3f1b 313c
00000110: bf51 ce3c 6568 953b f8c2 843a 3eb6 5c3c
00000120: 6a51 333b f9b1 e43b 733d 08bc 1440 133d
00000130: 9729 f93c 5694 a7bc 8915 31bc f8b0 59bb
00000140: e3dd a33b 2830 813c eef8 78bc 87f2 763c
00000150: e85b 9abb b999 adbb c19d 063b 8c84 cc3b
00000160: 9e43 0a38 3326 91bc a224 a33a 3e08 173c
00000170: 334b 043c 653e 99bc abb3 24bd a895 a13c
00000180: 3afc bd3b e189 3f3c 2435 dfbb 1339 64bd
00000190: 85d0 32bc c387 933c e914 9cbb 075b 1abd
000001a0: 4971 9bbb 3e24 cabb 1b66 293c 82f3 ac3c
000001b0: 2eda 22bc ffcb 213b 1147 103b 7750 583b
000001c0: 8b1b 653c 6fd2 9c3c d26b 873a 7ae7 883b
000001d0: f1ed 4cbc 2a7e 903b 5561 e2b9 0761 debb
000001e0: c3b7 0b3c 336d cd37 c483 a33b 8062 b2ba
000001f0: 525b f3bc 2d92 f8ba 16be d13c 0ac4 ed3c
00000200: 37d2 06bb 30fb c138 5761 2dbd a3aa 283c
00000210: 0e4c 1a3d 728e deba 220d b63c d50e 02bd
00000220: 666f b83b acdd 563c 76b6 b5bb 027f 0c3b
00000230: 0669 c43c 2485 cc3b f97a 5a3c 7c6f 033d
00000240: 1c90 e53b 2e1c 803c 5f26 643c de1e c03c
00000250: 9d57 233c eccb 10bc ea5b aabb a464 7e3c
00000260: ed4b 7d3b 6a11 44bc 2e8a 42bc ec45 28bc
00000270: c0d9 f63b d792 d1bb be6d b63b dc38 27bc
00000280: 81b3 adbc 3a58 c5bc 10ea b7bc 4bb8 3b3a
00000290: 12b9 413c 6ac6 083c 063c 01bd aee5 1bbd
000002a0: d285 2bbc 2770 bebc 1293 e23b 49f1 813b
000002b0: d379 74bc 65a5 ff3b fc1d fbbb 4853 173c
000002c0: 6862 9d3c f8c3 df3b 189f 4d3a 57f1 11bc
000002d0: 5289 933c c0e1 6c3c ac4b 8e3c b767 143c
000002e0: 1745 aabb 3d55 2c3c 63a9 ac3c ff47 113c
000002f0: 358b c63b cb5d 343c 2fb4 133c 7cb2 a33b
00000300: d871 b43b 6cc1 d9bb 1f0b 90bc 8a76 073c
00000310: 25f9 343c a1cf e93b f9cf 2a3b 0e63 60bc
00000320: 24e9 113c f437 9cbb 6b20 b1bc 8195 cf3b
00000330: 3f76 87bc 061a e53c 3ce8 9abc c5ca ccba
00000340: 3aee e6bc 7760 63bb 646d f8bc 1bc1 60bb
00000350: 8843 c33b 22f4 cebb 4831 c0bc 519d c63b
00000360: bc7b 8ebb c58b 21bc ee06 25bc f953 9dbb
00000370: cd8b aabb 3eea 05bc 1160 cf3c 0291 c63c
00000380: 2899 aa3c c8e1 abbb 7a32 783b e2bb 0b3c
00000390: 5fa7 d23c 4c77 c63b 4f90 aa3c a7e9 d9b9
000003a0: 6103 f93c 2d8c fbbc 1336 c2bb c4f3 1b3c
000003b0: 2c2d 94ba cb2b cebc f585 19bc f864 a13c
000003c0: 6723 60bc bd9a d2bc 9bcc 203c a458 263c
000003d0: b772 563c a2a5 5fbd ead1 103c 53fd fb3c
000003e0: 36ee 5b3c c089 883c e7e4 ac3c ca45 bc3b
000003f0: 3885 793b 6ee1 5dbc 04a7 d3bb 8609 c13b
0.026363214 0.03553796 0.007911663 0.004455071 0.0036810862 0.05539521 0.038518276 0.016499722
-0.0012925955 0.0034449152 0.055004824 0.018473048 0.0025986447 0.008095515 0.0054598944 0.03578662
0.024669103 0.020405406 -0.00085210585 0.0040888777 0.03568982 0.027564272 0.0075224214 0.006379033
-0.023194328 -0.0017063381 0.03133095 -0.0023326804 -0.021140518 0.0015502082 0.03236739 0.020187479
0.010525622 -0.01154638 0.013759427 0.019528436 0.034263767 0.022613563 0.0027034576 0.007250953
-0.012059867 -0.0033197422 0.009635714 0.010709937 -0.022101635 0.002201247 -0.0020291628 0.021637063
0.026365751 -0.015522227 0.025841443 0.03270209 0.01751124 0.02024893 0.027502663 0.033134703
0.020465655 0.008155231 -0.005200933 0.008819232 0.020072045 0.006940195 0.018392354 -0.0010356841
-0.0011349525 0.038988777 0.020475853 0.010809719 0.025185464 0.004559564 0.0010128906 0.013471184
0.002736176 0.006979224 -0.008315432 0.03594978 0.03041534 -0.020456474 -0.010808357 -0.0033217054
0.005000816 0.015770033 -0.015196068 0.015072471 -0.004710663 -0.005297866 0.0020540806 0.0062413868
3.2964737e-05 -0.01771841 0.001244683 0.009218274 0.0080745695 -0.01870651 -0.040210407 0.019724682
0.00579789 0.011690588 -0.006811755 -0.055718493 -0.010913973 0.018009072 -0.004763235 -0.037684467
-0.0047437293 -0.006168871 0.010339285 0.021112207 -0.009939713 0.0024688242 0.0022015015 0.0033006945
0.013983618 0.019143311 0.0010331816 0.004177985 -0.0125079015 0.004409571 -0.00043178597 -0.006786469
0.008527699 2.4488754e-05 0.004990073 -0.0013609678 -0.02970663 -0.0018964462 0.025603335 0.029024143
-0.0020572075 9.2497445e-05 -0.04232916 0.010294589 0.037670188 -0.0016979708 0.02222306 -0.031752426
0.005628514 0.013114374 -0.0055454327 0.0021438007 0.02397586 0.0062414575 0.013334983 0.03208874
0.0070057046 0.015638437 0.013925164 0.023452219 0.009969619 -0.008837681 -0.0051989453 0.015526924
0.0038649992 -0.011967042 -0.011873765 -0.010270577 0.007533282 -0.0063956785 0.0055672815 -0.010206427
-0.021203758 -0.024089921 -0.022450477 0.00071609457 0.011823909 0.008348087 -0.031551383 -0.038060836
-0.010468917 -0.023246838 0.006914505 0.003965531 -0.014921623 0.007801699 -0.0076634865 0.009236164
0.019211963 0.006828781 0.0007843836 -0.008907638 0.018009815 0.01445812 0.017370068 0.009057931
-0.0051962244 0.010518369 0.021076864 0.008867263 0.0060590752 0.01100869 0.009015127 0.004995642
0.0055067353 -0.006645372 -0.017583428 0.008268008 0.011045729 0.007135347 0.0026063903 -0.0136954915
0.008905683 -0.0047674123 -0.021621903 0.006334961 -0.016535876 0.02796651 -0.018909566 -0.0015624395
-0.028189767 -0.0034694949 -0.030325599 -0.0034294787 0.005958978 -0.006315724 -0.023461 0.006061234
-0.0043482464 -0.009859984 -0.010072453 -0.00480127 -0.005204654 -0.0081735235 0.025314363 0.024239067
0.020824984 -0.005245421 0.0037871883 0.0085286815 0.025714574 0.0060567018 0.020820765 -0.0004156355
0.030397119 -0.03070649 -0.0059268563 0.0095185675 -0.0011304966 -0.025167366 -0.009370317 0.019701466
-0.013680316 -0.02570855 0.009814407 0.0101529695 0.013088874 -0.05460132 0.00883911 0.030760443
0.013423493 0.016667247 0.021105243 0.005745624 0.003807379 -0.013542516 -0.006459119 0.005891028

encoder.bn2.running_mean f4 [4]
00000000: c142 023f 63bc ddbe c00e b3bc 2a85 2b3f
0.5088311 -0.4330779 -0.02185762 0.6700007

encoder.bn2.running_var f4 [4]
00000000: 7280 b63e 7ffe 463e d1a1 8d3e e4bf a73e
0.3564487 0.1943302 0.2766252 0.32763588

encoder.fc1.weight f4 [32, 196]
00000000: a6dc afb8 70b0 ddb7 2d24 6f3b b4ca e93b
00000010: b273 b13c 6286 803c ed89 ba3a 82af 2bb8
00000020: 52a3 b83b 0bb9 82bc 1865 c2bb 80fe 54bd
00000030: c40d 2bbb d497 6d3d e752 dd38 7f21 233c
00000040: 0c9d a5bb 95fb 343d 78d4 93bc c531 203d
00000050: a00d f33a 511c 3eba 108e 0c3b 5586 973c
00000060: 8427 b1bc 0fd0 c03c 7801 0a3d 653e c4bb
00000070: 9dd5 a0b8 d2c3 b9bc 7b9e 87bc cbd7 c3ba
00000080: f723 ce3c be75 783b abe7 c23c 7895 efb5
00000090: 8788 933b fa09 233d 18cd c1bc f56d 163c
000000a0: fb51 f73b 5731 28bb bc20 6db8 247a ed3c
000000b0: 0efe 63bc 9ee1 9f3c 1df1 1e3c e11b b4ba
000000c0: 750a aa3c 4c4f 333c 5dc1 4b3b 8bbb 5f3d
000000d0: 1cff 3abc 4eca bb3c fd5c 6f3c 339c 063c
000000e0: 4b58 8c3b 2fab 533b a54a 2e3c 6107 24bc
000000f0: 2163 093d 453f 52bc a472 a63c 7dc8 953c
00000100: ca4b 0bbd f4e6 7abd 1bf6 913c 6565 7b3c
00000110: 9d62 ee3c ef13 993b ab04 b93c 86cf 993c
00000120: ed13 c4bb b38f e1bc 0c77 09bc 8083 df3c
00000130: 18da 4a3b 0c9f e53c dc6b bd3b cf9d 8e3c
00000140: b69d 063c 58c9 033b eaa6 e53b 1699 f63c
00000150: a08c d93a ad20 97bb f980 9ebc 145e 2bbc
00000160: 5693 53bc 9db5 143c 6d35 1ebc f2f1 88bc
00000170: 3df9 b23c 1e21 1d3c 11b3 953c 3cdf 033d
00000180: 618e 8fbc 9f87 153b ffe8 11ba a850 cfb8
00000190: 60e6 aeba 5779 2e3c a786 36bc c939 1cbc
000001a0: 8c11 dabb 1e1c 95bc e10c d03c 0e92 92bc
000001b0: ad6a c13b 09e1 e6bc 0e4a 8c3c 2c44 8cbc
000001c0: 75cc e73c 9bad 2d3d 4f17 fbbc 38f1 6f3d
000001d0: a218 66bb c54c 553d fe2e 20bc 7204 74bc
000001e0: 0268 f93c 2fd7 e8bc 1b82 d83c 2e2d 86bd
000001f0: 0b9a 1d3d 32d4 8cbc c818 1dbc 0a17 e83b
00000200: d542 343c 866f c63c 7bef ee3a 602e 873c
00000210: 13cd 69bc 4c8f 63bc f66e 43bc 10cf aebc
00000220: 4ea5 133d dd6a 48bc 3ddf 60bb b1d6 363c
00000230: 793e 2d3d 151c 6b3c 338c 763c ab67 e83c
00000240: 12d0 47bc d2fd 3f3d fe62 fd3b 50f2 68b5
00000250: c6bf 453c e415 783c 84c9 98bc 16e2 66bc
00000260: 09b3 1bbc 3682 8a3b 45d8 84bb e7e1 0bbd
00000270: ec48 ae3d 8905 38bd 92ac 8b3d 5322 99bc
00000280: 5435 023d bd3b 6a3c e781 363c 15f3 993d
00000290: 97a5 f1bc 05ae 3e3d d905 00bd a157 f23c
000002a0: 084d 87bc b6c4 14bd 0c18 e4bc 3dd0 36bb
000002b0: 086a 223d 975b 21bd ad00 0d39 156f 8d39
000002c0: e4db 583c defa 2cb8 ff25 113c a4c6 dc3c
000002d0: be88 523c de0f c3bb 4b33 a13c 97ca a13c
000002e0: 41ff bd3b 479f dfbc 8359 373c 7cb6 163c
000002f0: c1d0 083c 7249 58b9 ad53 b23b b488 463c
00000300: 0951 953c 958c 02bc d06a b23b 7bd4 273a
00000310: 6b75 8938 981b acb9 eb24 97bb 615f ce3b
00000320: 179b 5d3b a742 ad3c e7c2 75ba e229 3b38
00000330: 54a3 1abb 0d1b 00bc f095 a8bc ca72 973a
00000340: 8586 07bc 2c37 a93c f7d1 5f37 7381 fa3a
00000350: cd99 de3c f1bd 4bbc 078f 0d3d bb2c b4ba
00000360: 84f5 3d3d 9145 c439 6be7 9d3b cd73 113d
00000370: 18da 00bd 3e4d 213d 79cb 25bb ad68 2d3c
00000380: aa1a cbb9 fc6e 3b3b 9b38 973b 9d87 f3bb
00000390: a103 c33c 75cf e33b 0b8b 553c d675 05b9
000003a0: 20aa 9e3c e1b5 153c a15a 633a 855b 6cbb
000003b0: cc00 f2bb 6541 213c 48ea 00b9 b382 663c
000003c0: ada0 9a3c 1c2a 61bc c344 453c eeeb 5c3c
000003d0: 3805 d83a f2be d53c 0ad5 903c 1665 1d3c
000003e0: ac89 e23c 53d1 113d 71c9 90bc f1f7 4fbc
000003f0: 6a48 5fbc 71a8 283c 532a 233d 6816 413d
-8.385749e-05 -2.6427413e-05 0.0036490068 0.00713476 0.021661613 0.015689079 0.0014231779 -4.093303e-05
0.0056347037 -0.015957376 -0.0059324615 -0.052000523 -0.0026100734 0.058006123 0.00010553543 0.009956717
-0.005054122 0.04418524 -0.018045649 0.039109964 0.0018543489 -0.0007252144 0.002144698 0.018496672
-0.021625288 0.02353671 0.033692807 -0.0059888833 -7.669183e-05 -0.022676382 -0.016555062 -0.0014941631
0.025163634 0.0037911977 0.023792109 -1.7850389e-06 0.0045023593 0.039804436 -0.023657367 0.009181489
0.0075476146 -0.0025664174 -5.653569e-05 0.028988905 -0.013915552 0.019516762 0.009701041 -0.0013741219
0.02075694 0.010944199 0.0031090595 0.054622214 -0.011413362 0.022923615 0.0146095725 0.008215952
0.0042829863 0.0032298078 0.010637914 -0.010011525 0.033541802 -0.012832467 0.020318337 0.018284077
-0.034007825 -0.06125541 0.017817548 0.015343999 0.029099757 0.0046715657 0.022585234 0.018775713
-0.0059838207 -0.027534341 -0.008390199 0.027284384 0.0030952748 0.028029941 0.00578068 0.017409233
0.008216312 0.0020109024 0.007008423 0.030102294 0.0016597696 -0.0046120496 -0.019348608 -0.010459442
-0.012913546 0.009076503 -0.009656292 -0.016716931 0.021847362 0.009590415 0.018273862 0.032195315
-0.017523946 0.0022816432 -0.000556603 -9.8855526e-05 -0.0013343804 0.010649047 -0.011140502 -0.009535261
-0.006654924 -0.018201884 0.025396766 -0.01789191 0.0059026093 -0.028183477 0.017125156 -0.01712235
0.028295735 0.04240189 -0.030650763 0.058579654 -0.0035109897 0.052075166 -0.009776829 -0.014893638
0.030445103 -0.02842292 0.026429227 -0.06551586 0.038476985 -0.017191026 -0.009588428 0.0070828246
0.011002262 0.0242231 0.001822933 0.016501606 -0.014270085 -0.013889145 -0.011928311 -0.02133897
0.03604632 -0.012232509 -0.0034312748 0.011159585 0.042295907 0.014349957 0.015048075 0.028369745
-0.012195604 0.04687292 0.007732748 -8.6779346e-07 0.012069648 0.015141938 -0.018650778 -0.014091989
-0.0095031345 0.004226948 -0.0040541016 -0.034150984 0.085100025 -0.044927154 0.068200245 -0.018693125
0.03178914 0.014296469 0.01113937 0.07517067 -0.029497905 0.046552677 -0.031255577 0.0295828
-0.016516224 -0.03632041 -0.027843498 -0.0027895116 0.0396519 -0.039393988 0.0001344706 0.00026976378
0.01323602 -4.1241634e-05 0.008859157 0.026950188 0.012849985 -0.0059528193 0.019677779 0.019749923
0.005798251 -0.027297629 0.011190775 0.009198781 0.008350552 -0.00020626726 0.005442104 0.0121175535
0.018227117 -0.007968088 0.005444862 0.00064022065 6.55454e-05 -0.00032826955 -0.0046125553 0.006297991
0.0033814365 0.021149946 -0.0009375051 4.462328e-05 -0.0023595886 -0.007818949 -0.020579308 0.0011554596
-0.008271818 0.02065619 1.3340722e-05 0.0019112065 0.027172947 -0.012435422 0.03456023 -0.0013746241
0.04637672 0.00037435864 0.004818847 0.035510827 -0.03145799 0.039380305 -0.002529828 0.010584039
-0.00038739044 0.0028600087 0.004614902 -0.007431938 0.023805441 0.006952221 0.013033639 -0.00012727766
0.019368231 0.009137602 0.00086728676 -0.0036065292 -0.007385349 0.009842251 -0.00012294308 0.014069247
0.018875444 -0.01374295 0.01204032 0.013483984 0.0016481047 0.026092026 0.01767971 0.00960662
0.027653538 0.035600018 -0.01767418 -0.012693391 -0.013628105 0.010294066 0.039835285 0.04714051

decoder.deconv1.weight f4 [2, 4, 5, 5]
00000000: dc34 8f3c 9367 00bd 9179 c8ba ae47 f73c
00000010: 9d09 43bd 68d6 98bc 3e4f f2bd 52cf fa3d
00000020: 925a 87bd 9e2b 6cbb c695 2dbd a38d 9ebc
00000030: 4552 39bd 9612 69bd f2c7 2bbd fec9 383d
00000040: 7929 a6bd fc84 0d3d 03cb 053d 5012 b53d
00000050: 7bb8 6f3d 1b85 443c c64b ddbc f23c cc3c
00000060: 5456 9fbc d229 bb3b e08c 94bd 76fb 30bc
00000070: 7db6 323d 826f 41bd f5de 923c a1c7 54bc
00000080: d1e7 bf3c c2bf a0bd 3e33 403d 5f1b 29bd
00000090: dbcd 003d 4d20 37bd 1c4a 5f3d ddc7 bbbc
000000a0: 3350 60bd 46a5 5e3d 29ff b0bd 22e8 4c3d
000000b0: 65ef b3bc 7662 9fbc 1115 e93c 0c9d e2bd
000000c0: 64f4 5a3d 6643 023c ab76 4a3d 2ebe f3bb
000000d0: d3ef 3a3b b743 3a3d 2572 583d 03c4 11bd
000000e0: f679 96bd dcd6 4f3d 371e 38bc a205 5c3d
000000f0: 3355 bf3c 996a 02bc 5551 c5bd dc1b abbd
00000100: 1311 19bd a1af b43c 23cb 193d ec9e 733d
00000110: 554c 2cbc 4839 c83d 54d7 313b 1b42 8e3d
00000120: c9e5 23bc 3112 1dbe b96c 8c3d 3771 f43a
00000130: 0bf5 7ebc 70dc c8bd 1d68 843d 1ec9 c6bc
00000140: 75f8 d13c 7d7f 18bc c9f7 033d 1996 57bc
00000150: e861 57bc b893 cabd 9c54 48bd 187f 8f3c
00000160: 3fce 9bbd 383d 27bd e662 aa3d 10df 2e3d
00000170: 64a0 293d 9bf6 0abd 414a ad3d ab4d 98bd
00000180: 199c 913d 8754 99bb 5f51 b03c f317 033c
00000190: 9e89 dc3c 0dfe 25bc c7ca 6d3d e588 c0bc
000001a0: a59b a83c 53f7 7cbc 9358 6c3d 59c0 48bd
000001b0: c2d4 b43d 8be6 ad3c a16e e43d 17e8 46bb
000001c0: c56e f33c 489e b3bd 3255 d339 7e5c ac3c
000001d0: 7ccb 5ebd 6d34 623c 5c61 1b3c 70e5 48bb
000001e0: 2a77 56bc 4dec f6bb 2d57 ab3d 93c9 393c
000001f0: d0ee 10be 5cbc b1bd d1cd 753d 77c1 f93c
00000200: 7a94 edbc b5fa 92bd 01e7 913c e065 983d
00000210: 2230 8a3c 5ce8 8c3d 623d 003d bee0 803c
00000220: c5de 063d 70e4 8dbc f3c2 7ab9 7288 333c
00000230: 2f98 c33c 66e5 013d ce03 8abd d301 813c
00000240: f749 fcbc 60c5 f83c 3d4b 97bc 917b b03c
00000250: 37c1 6cbc a124 a73c 7207 c9bc fb93 533d
00000260: 0464 5b3d 40b7 6e3d 2ce6 3b3d 0957 1fbd
00000270: 71a5 e9bb 8fdb a7ba 8561 c83c 9632 84bc
00000280: 7581 8abc 3d4e 063c 9921 46bc 2c78 c3bd
00000290: bfe6 f6bc 7eaf 9a3c f117 34bd 79c1 35bc
000002a0: ef93 b9bc feda d8bb a933 30bc b935 fc3c
000002b0: 5eb7 3a3d c414 b53d 1ea1 4cbd 68f5 8f3d
000002c0: 5740 5cbc 94a4 2ebd 0523 103b 749f 843c
000002d0: 3476 18bd 806a 9b3d 8e52 ec3c 4bd4 8c3d
000002e0: 147b 8c3d 8f83 abbb 6102 763c c95b 993c
000002f0: 47d8 1dbd 886a cabd 8045 2a3c f138 4b3d
00000300: 89fa 21bc 2800 c0bd 9753 323d 98cf 383d
00000310: a376 b3bc f668 cd3d 6d46 04bc 95fc 71bd
0.01748126 -0.031348776 -0.0015295019 0.030185547 -0.04761659 -0.018656924 -0.118315205 0.122465745
-0.06609072 -0.003603674 -0.042379163 -0.019354647 -0.045244474 -0.05690249 -0.04193873 0.04511451
-0.08113379 0.034550652 0.03266431 0.088413835 0.058525544 0.011994625 -0.02701367 0.024931405
-0.019450344 0.0057117725 -0.07253432 -0.01080214 0.043631066 -0.047225483 0.01792858 -0.012987048
0.023425968 -0.07849075 0.04692387 -0.04128587 0.03144632 -0.04470854 0.054514036 -0.02292245
-0.054763984 0.054356836 -0.08642418 0.050026067 -0.021964738 -0.01945613 0.028452428 -0.110651106
0.053455725 0.007950639 0.049429577 -0.0074384427 0.0028524294 0.045474734 0.05284323 -0.035587322
-0.07347481 0.050742015 -0.0112376725 0.05371631 0.023356056 -0.007959985 -0.096346535 -0.08354923
-0.0373698 0.022056403 0.037547242 0.05947773 -0.010516246 0.097765505 0.0027136402 0.06946202
-0.0100035155 -0.1533897 0.06856675 0.0018649463 -0.0155613525 -0.0980767 0.064651705 -0.024265822
0.025631169 -0.009307739 0.03221873 -0.013158345 -0.013145901 -0.09891456 -0.048908815 0.017516658
-0.07607698 -0.040829867 0.08319645 0.042693198 0.041412726 -0.033926588 0.084614284 -0.07436689
0.071098514 -0.004679266 0.021523176 0.008001315 0.02692109 -0.010131371 0.05805471 -0.023502776
0.02058203 -0.015439826 0.05770166 -0.049011562 0.08829643 0.021228096 0.11153913 -0.0030350739
0.029715905 -0.08770424 0.00040308532 0.021040197 -0.054393277 0.013806445 0.0094836615 -0.0030654334
-0.013089934 -0.0075354935 0.08366237 0.011339563 -0.141536 -0.08678505 0.060010735 0.030487759
-0.029001463 -0.07176725 0.017810347 0.07441306 0.016868655 0.068802565 0.03130854 0.015732165
0.032927293 -0.017320842 -0.00023914482 0.010957824 0.023876278 0.031712912 -0.06739007 0.01574794
-0.030796988 0.030367553 -0.018468494 0.021543296 -0.014450363 0.020403208 -0.024539683 0.051654797
0.05356218 0.05828023 0.045873806 -0.038901363 -0.007130318 -0.0012806522 0.024460563 -0.016137403
-0.016907433 0.008197364 -0.012092971 -0.09544405 -0.030139325 0.01888251 -0.043968145 -0.011093491
-0.022653548 -0.006617903 -0.010754504 0.030787336 0.04558503 0.08841851 -0.04995834 0.070292294
-0.013443074 -0.042637423 0.002199353 0.016189314 -0.037222102 0.07588673 0.028847959 0.06876429
0.06859413 -0.005234189 0.015015216 0.018720524 -0.038536336 -0.098836005 0.010392547 0.04961485
-0.009886392 -0.0937503 0.04353675 0.04511985 -0.021907156 0.10029785 -0.008073431 -0.05907877

decoder.bn3.running_mean f4 [4]
00000000: 7127 b53c d888 5f39 d4c5 a33c 99af 983d
0.022113534 0.00021317916 0.019991793 0.074553676

decoder.bn3.running_var f4 [4]
00000000: be80 433c 3607 2c3c 103f 883c bb37 6c3c
0.01193255 0.010499766 0.016631633 0.014417584

decoder.deconv2.weight f4 [4, 8, 5, 5]
00000000: ed54 6f3b 84a9 6fbd 31e2 1dbc d53b 58bb
00000010: f914 cb3c 6747 95bc f923 33bc 84a8 0d3d
00000020: 357d 433d 9e53 083d 0d2a 84bd 6342 bebc
00000030: c9e0 543c 106f 853c d312 1b3c 1c57 45bc
00000040: 3808 09bc c41b 80bc 6c57 f43b a39a 30bd
00000050: ecd0 3c3d 3add b4bc d667 ecbc be25 a0bd
00000060: 059e c43c c7b5 6d3c efc9 353d 27d7 783c
00000070: 9905 a33a ede6 04bd 039c 163d 0a14 233d
00000080: 4238 f83c f063 94bc a6c5 d7bc f3e8 0f3d
00000090: 1853 3e3c f097 69ba f26d 65bc a780 993c
000000a0: d87d 21bc 2a63 f6bb accc 0ebc ee0c ce3c
000000b0: 82f2 c8bc 90b1 04bd f396 913b 4e68 bebb
000000c0: d78d 253d 2c6a db3c 770a 813c c28e 9cbc
000000d0: 7766 a3bc bfd0 dcbc b64b e03c 89e6 83bc
000000e0: 025d 50bd 7bf4 26bd 8c68 163d b4b5 dd3c
000000f0: 912c 01bd f2e8 3abd 17bd 203c 8342 f53c
00000100: ddf2 203d 51c2 82bb b064 ca3c 191e 043a
00000110: 1e3e 463d f94d 1cbc 5582 68bc 770d ec3c
00000120: 0e84 383d 53ee e8bc 5191 5fbd ff06 83bb
00000130: 46b5 8ebc 5be2 30bb dce8 0abc 2f41 233c
00000140: 9d87 91bc fbf8 c9bc 17e4 2cbd 9958 11bd
00000150: 06bb 9abc 7c1a 123d 48d7 b7bc b902 a7bd
00000160: e837 14bd 1938 de3b 1a80 ea3c 579a 8539
00000170: b178 44bc 4edf 05bc 51f7 4f3d a581 d6bb
00000180: 878f c83b 7504 1b3d 6da4 df3b 5883 1bbd
00000190: 57e1 6d3b 5461 b63c 2484 11bb 8eac 4ebc
000001a0: 34be b5bc adf7 233d 09f6 85bc f61b 2ebd
000001b0: 0bff 88bc 475a 943c 4e0c b93c d1b7 eaba
000001c0: f8e8 4cbd 16e0 6bbd e630 c8bc a475 943d
000001d0: a9e9 07bc cdf8 9abd 7c68 66bc 68da 8d3c
000001e0: af3b 74bc 3aeb c53c d4da 413d c2ad 13bc
000001f0: 6619 3c3d ab2c 84bc f3ff 393d b661 b33b
00000200: 0269 d03c 312e f1bc 9776 843c 5d46 193d
00000210: 6130 523d 5589 4cbd 3926 493c 6779 f03c
00000220: 0710 9b3c 7d6b 803c d6f9 91bc 5ba6 38bb
00000230: 83c3 bfbc 46fb 0d3c 924d 4abd 9c82 e33c
00000240: 0f00 573d da71 94bc ec46 e5bc b511 383d
00000250: acf1 043d 2fda 18bd baa8 9ebd 2b39 183c
00000260: c3e6 4c3d d909 883c b4eb 6bbc aa9b 423a
00000270: 607f 903c 4992 123c 8193 c13c 62b0 7abd
00000280: 64e3 653d 21a1 e63c 9862 d6bc 6dfb 86bd
00000290: d538 b3bd a821 e9bb 8316 503c a1b1 01bd
000002a0: 5981 a4bc 7a42 71bc 7025 19bb 9719 483c
000002b0: 4332 033d d4e6 79bc 1218 163d cf52 e5bc
000002c0: 14c1 bcba e60e a2bc 754d 5dbd d38c 233c
000002d0: 36f2 00bc 6b3f 87bc 5af2 c4bb 1512 68bc
000002e0: f41f b13a 22bc 1a3d 9dee b2bc 8403 83bc
000002f0: feeb 19bd c82d cf3b 481b fb3c d825 1ebd
00000300: 4f32 eebc 5313 f2b9 c7c1 4d3b 9ca9 f53b
00000310: 1f62 a93c 522f 623c ba67 b33c b188 c03c
00000320: 924f 403d 07e2 bfbc 817b 17bc 2254 90bc
00000330: 821b 823d 7f5a a43c a4a2 ebbc 4317 313c
00000340: 75fe df3b 1f84 8b3b aaa3 d7bc 615e e6bc
00000350: d1bd 0bbd 0acc 49bc 717a 13bc a1cb 31bd
00000360: 60d9 4e3c 44c4 9c3c 974f 57ba 8073 cb3c
00000370: 83a3 e3bc b5a2 8e3c 0677 2ebb 9d76 233c
00000380: 89a6 60bd ce47 473c f8ae c63c 33fd 273d
00000390: aa5b b93c 84ad 70bd e75d 91bc 267b 6fbb
000003a0: 2892 cd3c 670c d5bc f2fd 603c 3723 8f3d
000003b0: 5561 373d b30a be3c 13f0 b6bb af95 413c
000003c0: b337 cc3c e5a4 82ba 3a80 683c ef7f 22bd
000003d0: 9b7b cabc 7910 693d 14e0 a0bc e976 fa3b
000003e0: 9b29 82bc 1955 653c eb90 47bb 40e3 c23b
000003f0: faa7 10bd 4476 223a 06ff fcba b968 c53c
0.0036519126 -0.058511272 -0.009636448 -0.0032994647 0.024790274 -0.018222524 -0.0109338695 0.034584537
0.04772683 0.03328287 -0.06453333 -0.023225015 0.012993046 0.01628831 0.009464937 -0.012044694
-0.008363776 -0.01563824 0.0074567106 -0.043116223 0.04609768 -0.022078145 -0.028858107 -0.07819699
0.02400113 0.014508671 0.044382032 0.015188015 0.0012437581 -0.03244679 0.036769878 0.039814033
0.030300263 -0.01811406 -0.026339363 0.035134267 0.011616491 -0.0008910885 -0.014003264 0.018738104
-0.009856664 -0.0075191455 -0.00871579 0.02515265 -0.0245297 -0.0323959 0.0044430434 -0.005810774
0.040418472 0.026784025 0.01575206 -0.019111041 -0.01994632 -0.026955007 0.027379852 -0.016101139
-0.05086995 -0.0407605 0.036720797 0.027064182 -0.031536642 -0.04563231 0.0098107075 0.029938942
0.039294112 -0.0039904495 0.024706215 0.0005039885 0.048399083 -0.0095400745 -0.01419123 0.028815014
0.045047812 -0.028433954 -0.054581944 -0.0039986367 -0.017420422 -0.0026990387 -0.00847837 0.009964271
-0.01776486 -0.024654856 -0.04220971 -0.035484884 -0.018888008 0.03566979 -0.022441521 -0.08154816
-0.03618613 0.0067815897 0.028625537 0.0002548273 -0.011991666 -0.008170916 0.05077297 -0.0065462166
0.0061206254 0.037846047 0.006825021 -0.037967056 0.0036297643 0.022263207 -0.0022204006 -0.012614382
-0.022185422 0.040031124 -0.01635267 -0.042507134 -0.016723176 0.018109454 0.022588875 -0.0017907565
-0.050026864 -0.057586752 -0.02443738 0.07249001 -0.008295455 -0.07566986 -0.014062997 0.017316058
-0.014906808 0.024160016 0.04732783 -0.009013595 0.04592266 -0.01613458 0.045410108 0.0054742945
0.025440697 -0.029440971 0.01616983 0.03742062 0.05131567 -0.049935658 0.012277179 0.029354764
0.01892854 0.015676254 -0.017819326 -0.0028175327 -0.023408657 0.008665865 -0.049390383 0.02777224
0.05249029 -0.018120695 -0.02798792 0.04493876 0.03245704 -0.03731745 -0.07747026 0.009290974
0.05002476 0.016606258 -0.014399458 0.00074237084 0.017638862 0.00894601 0.023629906 -0.061203368
0.05612506 0.028153004 -0.02617006 -0.065909244 -0.08751074 -0.007114608 0.01270068 -0.03166354
-0.020081209 -0.014725322 -0.0023368262 0.012213132 0.032030355 -0.015252788 0.03664405 -0.027993588
-0.0014400803 -0.019782495 -0.054028947 0.009982306 -0.007870248 -0.016509732 -0.006010336 -0.014164467
0.0013513551 0.037777074 -0.021842295 -0.015992887 -0.037578575 0.006322596 0.030652657 -0.03861031
-0.029076723 -0.00046172235 0.0031396018 0.0074970257 0.02067667 0.013805227 0.021900047 0.02350268
0.046950884 -0.023423208 -0.009245754 -0.017618243 0.06352903 0.020062683 -0.028764077 0.010808769
0.0068357536 0.0042576934 -0.026323158 -0.028121175 -0.03411657 -0.012316713 -0.00900136 -0.043407086
0.012625068 0.019136555 -0.0008213459 0.024835348 -0.02778793 0.01741157 -0.0026621236 0.00997701
-0.05484632 0.012163116 0.024253353 0.041012954 0.022626717 -0.058759227 -0.017744971 -0.0036541908
0.025094107 -0.02600689 0.01373242 0.069891386 0.044770557 0.023198461 -0.0055828183 0.0118154725
0.024928903 -0.0009967355 0.014190728 -0.03967279 -0.024717143 0.056900475 -0.019638099 0.0076435697
-0.01588898 0.01399734 -0.0030451368 0.0059475005 -0.035316445 0.00061974325 -0.0019302077 0.024097787

decoder.bn4.running_mean f4 [8]
00000000: cdc1 953d a555 3cbd 30c0 1dbb 7e52 05be
00000010: a141 8dbd 6383 893d 4b48 1ebd 0de6 03be
0.07312355 -0.045980114 -0.0024070852 -0.1301975 -0.06897283 0.06714513 -0.038643163 -0.12880726

decoder.bn4.running_var f4 [8]
00000000: 2885 ed3c 4152 053d e3ed 7c3c 0171 cb3c
00000010: ba73 013d 727e b03c 6f36 c23c e5fa b33c
0.028994158 0.032549147 0.015437576 0.024834158 0.031604506 0.021544669 0.023707597 0.021970222
